Model: "sequential_1"
_________________________________________________________________
Layer (type)                 Output Shape              Param #   
=================================================================
conv2d_3 (Conv2D)            (None, 20, 20, 32)        8224      
_________________________________________________________________
conv2d_4 (Conv2D)            (None, 9, 9, 64)          32832     
_________________________________________________________________
conv2d_5 (Conv2D)            (None, 7, 7, 64)          36928     
_________________________________________________________________
flatten_1 (Flatten)          (None, 3136)              0         
_________________________________________________________________
dense_2 (Dense)              (None, 512)               1606144   
_________________________________________________________________
dense_3 (Dense)              (None, 3)                 1539      
=================================================================
Total params: 1,685,667
Trainable params: 1,685,667
Non-trainable params: 0
_________________________________________________________________

Agent Initialized


Episode: 0
Steps: 1466
Duration: 75.38197922706604
Score: -20.0
Max Score: -20.0
Epsilon: 1

Episode: 1
Steps: 1411
Duration: 71.96909832954407
Score: -19.0
Max Score: -19.0
…
